…
* Check what's inside in fh :  ['data_x', 'data_y', 'test_x', 'category']
* Check the shape of data_x :  (6000, 3, 32, 32)
* After transpose :  (6000, 32, 32, 3)
* x_train data shape :  (5400, 32, 32, 3)
* y_train data shape :  (5400, 3)
2018-10-08 13:04:56.993336: I tensorflow/core/platform/cpu_feature_guard.cc:140] Your CPU supports instructions that this TensorFlow binary was not compiled to use: AVX2 FMA
_________________________________________________________________
Layer (type)                 Output Shape              Param #
=================================================================
conv2d_1 (Conv2D)            (None, 32, 32, 32)        896
_________________________________________________________________
activation_1 (Activation)    (None, 32, 32, 32)        0
_________________________________________________________________
batch_normalization_1 (Batch (None, 32, 32, 32)        128
_________________________________________________________________
max_pooling2d_1 (MaxPooling2 (None, 16, 16, 32)        0
_________________________________________________________________
dropout_1 (Dropout)          (None, 16, 16, 32)        0
_________________________________________________________________
flatten_1 (Flatten)          (None, 8192)              0
_________________________________________________________________
dense_1 (Dense)              (None, 512)               4194816
_________________________________________________________________
activation_2 (Activation)    (None, 512)               0
_________________________________________________________________
batch_normalization_2 (Batch (None, 512)               2048
_________________________________________________________________
dropout_2 (Dropout)          (None, 512)               0
_________________________________________________________________
dense_2 (Dense)              (None, 3)                 1539
_________________________________________________________________
activation_3 (Activation)    (None, 3)                 0
=================================================================
Total params: 4,199,427
Trainable params: 4,198,339
Non-trainable params: 1,088
_________________________________________________________________
Train on 5400 samples, validate on 600 samples
Epoch 1/50
 100/5400 [..............................] - ETA: 1:47 - loss: 1.8086 - acc: 0.4300
 200/5400 [>.............................] - ETA: 1:04 - loss: 2.0405 - acc: 0.4100
…
